model/last_run/model_20.pth (torch, 294303 bytes, 6 tensors)

fc1.weight f4 [256, 130]
00000000: c75d 123f 4e13 bcbd 54dd 3e3f 4b68 b7be
00000010: 390c 2a3f 3b3e cbbe ceaa bb3e 45bd e3be
00000020: 98af b43e e2fc 93be 3de8 f53e 7d1d b6be
00000030: a7ea ac3e 057f 6bbe a89e 1d3e 5ae7 91be
00000040: 4b9d b43d 91e4 03be 51a8 553e 1ecc 88be
00000050: 9250 653e 0b09 ebbd 2083 3a3e 01c5 613c
00000060: 8d2a 393e 416d 5f3d 257b ca3c 7790 e6bc
00000070: 2a4b c3bd 6878 d4bc 526d 31bc 9e08 59bd
00000080: 55b8 b4bb 8775 23be eae6 5fbe 1302 bb3d
00000090: e9d5 debe 390f 2a3e cd69 03bf 4570 e83d
000000a0: b267 23bf 17f3 b13e b39f db3d 38ff 67be
000000b0: 0e9c 133e 42f6 f5be 89eb 273c 601d 36bf
000000c0: 6463 df3d 5b8e 38bf 18ea 893d ea50 4abf
000000d0: 01b2 533e d481 1bbf 45fa 9b3e 7569 2bbf
000000e0: 0b9f be3e e311 23bf ef6a ce3e fa92 06bf
000000f0: 5897 df3e 93b7 08bf 4564 0b3f 6810 dfbe
00000100: 5379 063f fdeb 9bbe e527 ed3e 745f 46be
00000110: 713e 033f d100 debe a534 123f fe2b 97be
00000120: 397a 013f 7b6d 60be 07f4 053f 6c6a 12be
00000130: 8ab9 0d3f 39ee c6be 919e 2e3f bc8c b4be
00000140: 3e8e 1d3f 0d3f 12be 4b0a 233f 7593 f7bd
00000150: d9a1 cd3d 0091 34bf e726 8fbe f71d bcbe
00000160: 3755 d1be b25b bfbe 15c7 41bf 8610 02bf
00000170: 5889 70bc 3eae e1be 6674 dc3d 2cee d1be
00000180: e0db 803d 2ad9 b8be bb51 9ebf 243c 0dbf
00000190: e182 bfbd 67ae 12bf 5ff4 41be 011f b6bf
000001a0: a2f8 043b febb a7bf e69a 57bf be23 51bf
000001b0: 3ea0 2dbe 9275 60bf d107 a7be c0b0 1fbf
000001c0: 8ee1 623d 67fe 8ebe 149f 343d 186c 13bf
000001d0: 98bc 95be 15f7 30be 9760 f3bd 06e5 12bf
000001e0: 7ffc dfbe e47b e73b 2fd1 0d3c 04fe 26bf
000001f0: f3d9 fcbe 106f 34be 983f 3a3d 5714 0abf
00000200: ad9a f5be 29c8 88be 95be 50be 0e45 abbe
00000210: 19f9 45bc ad74 b9be d69e 62bd b302 afbe
00000220: 4162 15bd ec1e 11be 42fa c03d 8f46 fbbd
00000230: becf 813d 9de4 2abe f999 2dbd 1b65 6ebd
00000240: bf7a c63d 7a0e ecbb 78c9 573e 63d0 913d
00000250: c294 11be 1eb9 22be 31e5 c6bd e80c 34bd
00000260: 2aa9 b5bd 3bd1 3e3a 7580 8b3d 01bc 0a3e
00000270: a0ba 98be 4e7f a5bd 9fc2 5bbe 9c38 613d
00000280: a5af 68be 2180 49bc 9fd0 adbd 6958 8c3c
00000290: 8b07 ccbe 9f94 06be c2a7 92be f671 62bd
000002a0: d6e3 a1be 0453 9cbb 07d2 56be 0621 213e
000002b0: c670 d43d 6a1c dabd 1db8 a03c 25d4 48be
000002c0: 41cf 343d 3b53 2ebe 753d a1bc d69b 1ebe
000002d0: cd85 453d e800 12be 2242 41bd 7dd6 25be
000002e0: 4705 223d 8d12 a4bd a1c1 ad38 c5f7 33bd
000002f0: 9629 82bd 2a90 a43d 30c7 5e3d dc22 e4bd
00000300: 9751 ad3c 7480 f4bb 28d0 91bc d96e 713c
00000310: f839 babd 88a8 d13d 65ad 0a3e 05c5 b1bd
00000320: 481e 443d eb34 a83d 1aa6 23bd c49f 103d
00000330: 46c0 b2bd 9d35 bf3d e548 473e 9952 abbd
00000340: 1e25 7e3e f4ca c2bb 68ab 123e 4bb4 0abd
00000350: a633 9fbb ba49 7d3d 4493 433e f3c8 0d3f
00000360: 02f5 713e 04bb 083f d161 6b3e 7927 033f
00000370: 7374 4e3e a845 093f a8ea 653e a7d7 f43e
00000380: 28dc b23e aa27 d73e c0cd ad3e e8e3 d33e
00000390: 04ce 27bb 4d85 fe3e ccd3 a43e 6a37 e13e
000003a0: f8cf 903e e29b 1d3f 19ff d23e 91cf 103f
000003b0: af7a 3dbe 0dd9 80be fe15 aa3e c0fa 8abe
000003c0: 0a7a d3be 031b 4dbe fef4 d63e 23fd 52be
000003d0: 0956 e1be 1926 22be b0a9 103f 891c 8fbe
000003e0: 74d4 abbe 2222 2cbe f628 f53e ae37 8abe
000003f0: a6b1 74be a249 2dbc dfd2 b23e bc72 56be
0.5717434 -0.091833696 0.7455647 -0.35821757 0.664249 -0.39695916 0.3665375 -0.4448034
0.35290217 -0.28903872 0.48028746 -0.35569373 0.33772776 -0.22997673 0.15392554 -0.2849682
0.08819064 -0.1288016 0.20864989 -0.2671823 0.22394016 -0.11476334 0.18214083 0.01377988
0.18082638 0.054547552 0.024716923 -0.028145058 -0.09535821 -0.02593632 -0.010829287 -0.052986734
-0.005515138 -0.15962802 -0.2186543 0.09131255 -0.43522575 0.1660737 -0.51333314 0.11349539
-0.638301 0.34755775 0.107238196 -0.22655952 0.14414999 -0.48039442 0.010249027 -0.7113857
0.10907629 -0.7209222 0.06734103 -0.79029715 0.20673372 -0.60744977 0.30464378 -0.6695779
0.37230715 -0.6369917 0.4031596 -0.5256802 0.43670154 -0.5340511 0.54449874 -0.43567204
0.52528876 -0.30453482 0.463195 -0.1937235 0.51267153 -0.43359998 0.5711158 -0.2952575
0.5057712 -0.21916763 0.5232548 -0.14298409 0.55361235 -0.38853624 0.68210703 -0.35263622
0.6154517 -0.14281864 0.6368758 -0.12088672 0.100406356 -0.7053375 -0.27959368 -0.3674161
-0.40885326 -0.37374645 -0.756944 -0.5080646 -0.014681183 -0.4407825 0.10764389 -0.41002023
0.06291938 -0.36103183 -1.2368692 -0.5516989 -0.09351135 -0.57297367 -0.18940876 -1.4228212
0.0020289798 -1.3104246 -0.8422073 -0.81695163 -0.16955659 -0.876794 -0.3262315 -0.62379074
0.055390887 -0.2792847 0.04409702 -0.5758681 -0.29245448 -0.17281754 -0.118836574 -0.5738071
-0.43747327 0.0070643295 0.00865583 -0.6523135 -0.49385032 -0.17620492 0.045470804 -0.53937286
-0.4796957 -0.2671521 -0.20385201 -0.33451122 -0.012083315 -0.3622183 -0.05532726 -0.34181747
-0.036470655 -0.14171952 0.09422733 -0.12269317 0.06338452 -0.16688772 -0.042383168 -0.05820189
0.09691381 -0.007203874 0.21072948 0.07119825 -0.14216903 -0.15890929 -0.097116835 -0.04395762
-0.08870156 0.00072791026 0.068116106 0.1354828 -0.29829884 -0.08080922 -0.21460961 0.054985628
-0.22723253 -0.012298615 -0.08487057 0.017132001 -0.39849505 -0.13142632 -0.28643614 -0.055284463
-0.31619138 -0.0047706384 -0.20978557 0.15735254 0.10373072 -0.10649951 0.019619042 -0.19612177
0.044142965 -0.17023937 -0.019682625 -0.15489134 0.048223305 -0.14258158 -0.04718221 -0.16195102
0.039555814 -0.08011351 8.285349e-05 -0.043937463 -0.06355588 0.080353096 0.05438918 -0.111394614
0.02115707 -0.007461602 -0.017799452 0.014735901 -0.09093088 0.10237223 0.13542707 -0.086801566
0.04788044 0.08213218 -0.03995333 0.035308614 -0.087280795 0.09336398 0.19461401 -0.08365364
0.24818847 -0.005944604 0.14323199 -0.033863347 -0.004858452 0.06183789 0.19099146 0.5538475
0.2362862 0.53410363 0.22986533 0.51232105 0.2016161 0.5362191 0.22452796 0.4782078
0.3493359 0.4202245 0.33946037 0.41384816 -0.0025604973 0.49711075 0.32192838 0.4398759
0.28283668 0.61565983 0.4121025 0.5656672 -0.18503831 -0.25165597 0.33219904 -0.27144432
-0.41304046 -0.20029835 0.4198379 -0.20604376 -0.44010952 -0.15834846 0.5650892 -0.27951458
-0.33560526 -0.16809896 0.47882813 -0.26995605 -0.23895893 -0.010576637 0.34926507 -0.20942205

fc1.bias f4 [256]
00000000: 6b00 8fbe 4a8f 95be 260a 5dbc 764b 1ebf
00000010: a1bb 14bf ff45 ad3b 7c28 92be 70c2 bdbe
00000020: ba6d c5be 4d5f d8be 4ede ca3d f773 16bf
00000030: be9c 5e3e 9a79 43bf 5372 1abe e444 a8be
00000040: 85ea 25bf c833 41bf 868d 06bf 0997 dd3c
00000050: a55d 9abe c163 52bf 0445 01bf bada 6fbf
00000060: 3f06 acbe bab2 1e3e 921b b2be f2d1 77be
00000070: 01ea 18bf 5838 56bf 6776 f1be 340a 723d
00000080: 773f efbe 5de8 50bf 7b6b 06bf fd5e 29be
00000090: bc49 51bf 2487 62bf 10e1 3bbf bdb4 2dbf
000000a0: e52e 84bf 8a03 89be d7ad 263f f4ef 74bf
000000b0: 3fe8 1fbf e7ee a9be 2575 abbe a714 863e
000000c0: 42a6 28bf 6001 0dbf 08ba 1abd da72 58bf
000000d0: cb7f aa3e f06b 6abf 76cc 623e 44c8 51be
000000e0: 6527 37bf 5053 d3be ba7d 7b3e 9b8a 34bf
000000f0: b321 f9be 2f95 9ebd a122 fdbc 0620 9ebe
00000100: 117a 07bf d8f9 2cbf 3414 25be 9431 39be
00000110: 7d9a acbe 6fd9 af3e 1263 2abe af5e c63d
00000120: e173 e8be bd1e 883e 7964 55bf d788 3cbf
00000130: bda9 b0be f366 00bf 67ee 333d 53e4 083e
00000140: df24 2abe 5795 3fbf d0ea efbe 2a95 46be
00000150: 37a0 38be a814 6dbf 4876 38bf 4898 68bf
00000160: 1f7d 4dbf c53b ecbd b266 a2be f5fd 92be
00000170: fb8b 0cbe c4ff c83d c4f4 90be 82d0 2ebe
00000180: c1c6 5ebf d212 9a3e 1b1f 97be a641 1dbf
00000190: da24 ffbe c4c1 2f3e 39ef dabd 3459 48be
000001a0: e3f0 8dbe b18a 79be 9cec b5be cc84 9bbd
000001b0: 27f5 0cbf 3e9c adbe 0942 9fbe 7c2a 07be
000001c0: 7036 20bf 3266 a6be c9d5 06be 5040 7bbe
000001d0: 3dd3 f4be c85d 8dbf 5f72 f6be c439 9dbd
000001e0: 88d5 e03d 96a4 b5be 07d5 5d3e 94a5 41be
000001f0: 28dd 5e3e 4399 3dbf 432c bfbe 5137 923c
00000200: fe99 bfbe 0cd0 d3be 546f cf3e 6e4a 27be
00000210: 4f33 a7be d79f 3fbf f674 30bd 2991 62bf
00000220: 4ad5 fc3d 9bee 20bf cdab 9b3e 0b0a 86bf
00000230: 998b 1b3c 2273 aabc cabe 6fbe e922 f9bd
00000240: 63fd fe3d 2b4f 573e e802 15bf 863f 94be
00000250: c1e7 4bbf 68f0 75be 3146 c2be 16dd d5be
00000260: e364 19bf c38d 89be 2628 b03e a906 78be
00000270: aa01 5d3e d0a8 51bf 041a 59bf 997f d93d
00000280: 8fb0 44be 6b9d d33c 9422 f9bd 3542 2dbf
00000290: 8bef 29bf 586f 41bf 2607 cc3d 7157 a5be
000002a0: 4518 a1be 695a 42be 1244 aebe bad0 0bbf
000002b0: e0a5 64bf 3ef5 cebe 010f f2be a07c 92bd
000002c0: dfef 96be b167 61bf 1e3e 23bf f601 17bf
000002d0: b3d8 6dbe a324 38bf d6c0 8cbf de99 61bf
000002e0: 9dfa 8f3e afb7 e1be 3160 76bf f271 9d3d
000002f0: 0090 52be 0402 103e 98c9 643d 70ba 1cbf
00000300: 1513 0bbe 8d1a 6ebe ba53 c5be ffad 1dbf
00000310: 2a04 d1bd 4b57 ff3d 26a3 5ebf 5671 22bf
00000320: 5a1c 35bf 65cb 7dbe 97d9 c5be 69a2 99be
00000330: 553a 65bd 63c7 13be 4428 2cbe 245c 00bf
00000340: 2777 2abe 3aa1 18bf 87b2 4ebc 1f50 1fbf
00000350: c673 e1be 77b8 08bf f5b8 89bc 347e 54bf
00000360: 109c 83be 70ca 67bf 99c0 0bbf dbe8 64be
00000370: 9d57 89bf 06d2 70be 8df0 9cbe 91f6 22be
00000380: af69 b13e fdde d93e bcee 28bf d958 10bf
00000390: 877c c6be 301f 71bf 004a 9abe 6ec1 43bf
000003a0: e24d bfbe f70e 3cbe bc04 37bf 60c3 08bf
000003b0: 17d5 67bf ffcf 81bd dfeb c03c a742 2a3e
000003c0: 37f4 38bf 8a84 03bf 3348 d4bd e7d0 523d
000003d0: 924b 76bf f0df e8bd 0a9a acbd f66b 023e
000003e0: 62fc 77bf 9131 34bf 69d9 aebe f997 6dbf
000003f0: 885a 77bf 0ae7 a3bc 8209 ecbd d1d5 f8be
-0.27930006 -0.29210883 -0.013491189 -0.61833894 -0.580988 0.005287885 -0.28546512 -0.37062407
-0.38560277 -0.4226021 0.099056825 -0.587707 0.2173948 -0.76357424 -0.15082674 -0.3286506
-0.64810973 -0.75469637 -0.525597 0.027049558 -0.3014957 -0.8218346 -0.50495934 -0.93693125
-0.33598515 0.15497866 -0.3478666 -0.24201182 -0.5973206 -0.83679724 -0.47160646 0.05909176
-0.46728107 -0.8160456 -0.5250775 -0.16540141 -0.81753135 -0.8848746 -0.73390293 -0.6785391
-1.0326811 -0.26760513 0.6510901 -0.9567864 -0.62463754 -0.3319008 -0.33487812 0.2618763
-0.6587869 -0.55080223 -0.03777507 -0.8455025 0.33300623 -0.9157095 0.22148308 -0.20486552
-0.71544486 -0.412745 0.2455968 -0.70523995 -0.48658523 -0.07743298 -0.030900301 -0.30883807
-0.52920634 -0.6756873 -0.16120988 -0.18085319 -0.33711615 0.34345576 -0.16639355 0.09686028
-0.4540091 0.2658595 -0.83356434 -0.736463 -0.345045 -0.5015709 0.04392853 0.13368349
-0.16615628 -0.7483725 -0.46858835 -0.19392839 -0.18029867 -0.92609644 -0.7205548 -0.9085736
-0.80269045 -0.11534838 -0.31718975 -0.2870938 -0.13725273 0.098144084 -0.2831174 -0.17071727
-0.87022024 0.30092484 -0.2951592 -0.61428297 -0.49832803 0.1716376 -0.10690159 -0.19565278
-0.27722844 -0.24369313 -0.3553208 -0.07593688 -0.5506157 -0.33908266 -0.31105068 -0.131998
-0.62583065 -0.32499844 -0.1316749 -0.24536252 -0.47817412 -1.1044245 -0.48134133 -0.076770335
0.10978228 -0.35477132 0.21663295 -0.1891082 0.21764052 -0.74061984 -0.37338457 0.017848643
-0.37422174 -0.41369665 0.40514624 -0.16336986 -0.32656333 -0.7485327 -0.043080293 -0.88502747
0.12345369 -0.62864083 0.3040451 -1.0471815 0.009493732 -0.020806853 -0.23412624 -0.12164862
0.124506734 0.21026294 -0.5820756 -0.28954715 -0.79650503 -0.24017489 -0.37944177 -0.41770238
-0.59919566 -0.26865968 0.3440563 -0.2422129 0.21582666 -0.8189821 -0.8480532 0.106200404
-0.19207977 0.025831899 -0.121647984 -0.6767915 -0.6638114 -0.7556052 0.09962301 -0.32293275
-0.3146383 -0.18979801 -0.3403631 -0.54615366 -0.89315605 -0.4042148 -0.47277072 -0.071526766
-0.29479882 -0.88048846 -0.6376666 -0.5898737 -0.23227195 -0.71930903 -1.0996349 -0.8812541
0.2812089 -0.44085452 -0.96240526 0.07687749 -0.20562744 0.14063269 0.055856317 -0.6122198
-0.13581498 -0.23252316 -0.3854044 -0.6159362 -0.10205872 0.12467822 -0.86967695 -0.63454187
-0.70746386 -0.2478462 -0.3864257 -0.30006722 -0.055963833 -0.14431529 -0.16812235 -0.50140595
-0.16647016 -0.5962101 -0.012615806 -0.6223163 -0.4403364 -0.5340647 -0.016811827 -0.8300507
-0.25705004 -0.9054327 -0.54590756 -0.22354452 -1.0729862 -0.23517618 -0.30652276 -0.1591437
0.34650943 0.4255294 -0.6598928 -0.5638557 -0.38766882 -0.94188213 -0.30134583 -0.76467025
-0.37364107 -0.18365084 -0.714916 -0.5342312 -0.90559524 -0.063385 0.023549972 0.16626988
-0.7224764 -0.51374114 -0.103653334 0.051468756 -0.9620906 -0.11370838 -0.08427818 0.12736496
-0.9686948 -0.7038813 -0.34150246 -0.92810017 -0.96622515 -0.020007629 -0.11525251 -0.4860063

fc2.weight f4 [128, 256]
00000000: f9d1 82be 7a46 4cbc a190 793d 2314 21bd
00000010: 24c7 debc 3d63 2ebd 21c3 dabd 36fb d4bd
00000020: 7f68 4d3d 5c75 e8bd 6079 743b a008 dfbc
00000030: d325 84bd 7eb4 8cbd 9fd4 89bd bb55 7abd
00000040: 7b22 1cbd 8e01 cbbd 545d 2abd 918d 44bd
00000050: bca9 5dbd c7e2 29bd 5590 19bd cd5a d3bd
00000060: 37c3 8ebc 821b 51be 96d1 2bbd 258b fcbc
00000070: f1aa a8bd 02ca eebd 9ca0 ab3d 982b d0bc
00000080: 6b6c 103d 2a8e ccbd 4b2c cbbc 47cd a6be
00000090: 8397 b8bd d8af e6bc 6892 8dbd 49b3 9fbd
000000a0: 5c82 57bc 3fce 88bd f5ba 44be b9a0 9cbd
000000b0: 9179 12bd d189 c8bd ac72 80be be97 e9bd
000000c0: 365e 0d3b a4b0 3ebd e658 98bd 8363 97bd
000000d0: 8814 2c3c 43ee 843d aaf1 d7bd 19bc 043d
000000e0: 9559 f1bd 44cc f43c 460b 4ebc 3f1c 49bc
000000f0: 333f c03d 0063 7f3a 7e4d 683d c6f0 123d
00000100: 4e11 9ebe 0423 9abc 2784 7bbb f933 7bbc
00000110: f0a5 093d 53b8 92bb 349e 84bd 60c5 3c3c
00000120: c41b 81be 2329 51bc 2ac3 cc3d a48d 57ba
00000130: 6a3e 99bd d4ef 4f3a 6f85 83bd 211a b03c
00000140: d7ad e8bd b2bf 5d3d 3b63 75bc 24a7 623b
00000150: 90e5 943d ab52 94bd b2bb 08bd 0045 0b3d
00000160: a5d4 ddbd a2cc 9bbd 8795 edbd 23f0 cfbd
00000170: 88c6 04bd 238a d1bc ebbb 72bd 44ba f33c
00000180: 66b9 1fbd e04a e4bd c18e d7bb 164c 54bc
00000190: 953b cc3c c380 ee3c 8c72 14bb 3400 bdbd
000001a0: a5a1 66bd b8f8 debd 1ffb f5bd 0b44 7abd
000001b0: 1c18 21bd 15f9 b73d c00e a0bd ac1d 0ebe
000001c0: 866e 953d 7014 31bd 3695 5dbd c3d9 d2bd
000001d0: 75fa ee3c 3066 ebbd ffdf 1dbb 707d 89bd
000001e0: 7a6d e4bd 39fa 92bc 2923 babc 0a87 863d
000001f0: b243 6abd c767 60bd a97f 8fbd a915 b1bd
00000200: 2b3e b7bc 9472 c9bd b044 0dbe ea1c 30bd
00000210: 0dc5 6cbc 97dc e5bd beb8 9abc 9662 b33c
00000220: 9c2c d2bd f11f 833c 1ebd 95be 4890 d2bd
00000230: ec67 d7bd 1245 4cbd 0e74 29bd 1228 78be
00000240: 8fd5 c93c 7865 e73d 2835 aa3d ae76 2cbe
00000250: 05e1 67bd cc29 b23d 569a 533d 5605 b0bd
00000260: 01f9 1ebd 6e7b bf3c d683 5cbd 77a6 88bd
00000270: bd13 84bd 2de0 f5bd 20cc 5b39 3902 5dbe
00000280: 6a0e abbc 4936 4a3d 931c 73bd e29d bcbd
00000290: db51 aabc b69b ebbd 10d3 dbbc 4b6d d9bd
000002a0: feb0 18be 4bc2 d2bb 37db a3be 59f8 bcbd
000002b0: 7201 05bd 626c 723d 6bdb c439 3132 27be
000002c0: 1136 6ebd 5d8a 303d 116f 4ebd 3326 17bd
000002d0: f6e9 ecbd 0747 c5bd fc60 843c 4ec6 7fbd
000002e0: 2dee b6bc babb 1abd 8cbd a1bc 7ae8 87be
000002f0: 0fb5 533d a746 d6bd fde5 e5bd ba67 23bc
00000300: 17a5 acbe e765 b83d 4870 d23d 4f3d 34bd
00000310: 40a7 f03a 58fe a03d 3099 88bd bc2c e9bd
00000320: 5bb9 f0bc 241e 023d fce9 f5bd 167e 62bd
00000330: a8a1 c23c 79af 58bd 747c fabb 41fe 67bc
00000340: 9420 a8bd 6d3b ecbd 2ded dfbc 9b85 13bd
00000350: c0af b33b 6bcc efbc aa7d 993c f9fc f6bd
00000360: 0716 e6bc 7b33 58bd 6412 98bd 8f1f f5bd
00000370: 90fb 38bc 869d c0bd c7e1 95bd 44d3 dbbc
00000380: 045b 9fbd 781d d4bd 3fed 79bd 0f15 e3bc
00000390: a2d5 6ebc 8996 14bd 0dc9 9dbd e4a2 3abd
000003a0: 6811 a8bd 4acb 96bd 33a3 993d 78cc 0abd
000003b0: 628d 63bd e2e5 a1bd c560 a2bd 4988 df3c
000003c0: 8109 d6bc 8e44 933d 8740 debc 2f9a 92be
000003d0: 6475 61bd e90d f2bd ca0f 66bd 51ee 84bd
000003e0: faf6 bdbc fa02 bc3c ef97 7cb9 aaca 4fbd
000003f0: 1426 fcbc 3deb 91bd baa4 27bd ed72 b0be
-0.2555082 -0.012467975 0.060928944 -0.039325844 -0.027194567 -0.04257511 -0.10681749 -0.10399477
0.050148483 -0.113505095 0.003730379 -0.027225792 -0.06452527 -0.06870364 -0.067300074 -0.061116915
-0.03811882 -0.09912406 -0.04159291 -0.04798657 -0.05411695 -0.041476037 -0.03749116 -0.10320053
-0.01742707 -0.2042065 -0.041947924 -0.030828068 -0.082357295 -0.11659624 0.08380243 -0.025411412
0.035259645 -0.09988053 -0.024801394 -0.3257849 -0.090132736 -0.02816002 -0.069126904 -0.07797868
-0.013153639 -0.06679963 -0.19211943 -0.07647843 -0.035760466 -0.097919114 -0.25087488 -0.11405896
0.0021571047 -0.046555176 -0.07438831 -0.07392027 0.010502942 0.06490757 -0.10544141 0.032405946
-0.117846645 0.029882558 -0.01257593 -0.012274801 0.09387054 0.000974223 0.056714527 0.03587415
-0.30872577 -0.018815525 -0.003837833 -0.015332215 0.033605516 -0.0044775396 -0.06475487 0.011521667
-0.25216496 -0.012766155 0.09998162 -0.0008222705 -0.07482608 0.00079321605 -0.06421935 0.021496834
-0.11361282 0.054137893 -0.014977272 0.0034584487 0.07270348 -0.0724233 -0.033382125 0.03400135
-0.10831574 -0.0760739 -0.11600786 -0.10153224 -0.032415897 -0.025578564 -0.059261244 0.029751904
-0.03899517 -0.11147094 -0.006578297 -0.012957593 0.024930755 0.029114133 -0.0022651283 -0.09228554
-0.0563065 -0.10887283 -0.12010788 -0.061100047 -0.039329633 0.089830555 -0.07815313 -0.13878506
0.07296471 -0.04323238 -0.054097377 -0.10295441 0.029172162 -0.114941 -0.002408981 -0.067133784
-0.111536935 -0.017941581 -0.022721844 0.065687254 -0.057193466 -0.05478647 -0.07006771 -0.086467095
-0.022368511 -0.09836307 -0.13795733 -0.042996325 -0.014451277 -0.11223715 -0.01888692 0.021897595
-0.10262415 0.016006442 -0.29245847 -0.10281426 -0.105178684 -0.049870558 -0.041370444 -0.24234036
0.024637965 0.112986505 0.0831092 -0.16842148 -0.05661108 0.08699378 0.051660858 -0.08594768
-0.038811687 0.023374286 -0.053836666 -0.06672376 -0.06449077 -0.12005649 0.0002096151 -0.21582879
-0.020880897 0.049368177 -0.059353422 -0.09209801 -0.020790985 -0.11504309 -0.02683404 -0.10616549
-0.14911267 -0.006431853 -0.32003185 -0.09227056 -0.03247208 0.059185393 0.00037547512 -0.1632774
-0.05815703 0.043100704 -0.05039889 -0.036901664 -0.11568062 -0.09632688 0.016159527 -0.062444977
-0.022330368 -0.037776686 -0.019743703 -0.26544553 0.051686343 -0.104626946 -0.112255074 -0.009973461
-0.33719704 0.09003811 0.10275322 -0.04400378 0.0018360391 0.07861012 -0.06669843 -0.113854855
-0.02938526 0.031767026 -0.120075196 -0.055296026 0.023758724 -0.05290172 -0.0076442305 -0.01415974
-0.08209339 -0.11534772 -0.027334774 -0.036016088 0.0054835975 -0.029272279 0.01873668 -0.120599695
-0.028086675 -0.05278347 -0.07425383 -0.1196891 -0.011290446 -0.09405045 -0.07318454 -0.026834138
-0.07781032 -0.10357183 -0.06101727 -0.027720002 -0.014577301 -0.036276374 -0.07704363 -0.0455655
-0.08206445 -0.07362993 0.07501831 -0.033886403 -0.055554755 -0.07905175 -0.079286136 0.027286666
-0.026127579 0.0719081 -0.027130378 -0.28633258 -0.055043593 -0.118190594 -0.0561674 -0.06490768
-0.023189057 0.022950638 -0.00024089192 -0.050730385 -0.030779876 -0.07124946 -0.04092858 -0.3446268

fc2.bias f4 [128]
00000000: 202c efbd 3653 ce3d c4f1 67be 20fc bebd
00000010: ce69 b9bd 9a35 273d 9dcf 51be de85 dbbd
00000020: 1096 79bd eee5 87bd 4f1b e0bd c9e5 78be
00000030: 81ae 523e 1a05 24bd 2922 f2bd c567 61bd
00000040: 4801 383d 802e 9bbe 0c02 d6be 636e 463a
00000050: ffed 17bd 4614 17be bac8 d33d 3e2b 98bb
00000060: 9167 1cbd 188a f2ba 75de f6bd db91 75bb
00000070: 6afc cbbd 1b37 b4bd ab8a e53e 79a0 1e3e
00000080: 0c27 06be bf14 cfbd 0dbc 9abc 6f76 bf3e
00000090: 08c7 ef3e 6e06 4a3d 6d2f b4bd 14e8 403f
000000a0: 3e32 aabd cee5 91bd 12c0 f0bc cf3d fcbd
000000b0: da41 e3bc 6173 5b3f 9f16 71bc 6f72 6dbd
000000c0: dc87 ed3e 3ac7 27be 5249 04bd c90c 4abe
000000d0: 1427 cdbd f9d5 c83d b51b 373e 6d9e 1fbd
000000e0: 2210 c9bc f280 233e 4051 cebe 1191 cbbd
000000f0: 0c08 ddbd 2b13 48bd 58bf 15bd 359f 53be
00000100: b811 6ebe 6d30 31bd 802f 87bd 074a 29bd
00000110: 0a78 b1bd 6ae3 a63e 9523 d6bd a33d 6ebd
00000120: ff8b 76bd 377c d0bc 7ac5 b7bc c248 eabd
00000130: 530d 75be db0c 3a3f abff efbd 9db5 71be
00000140: 7a9f d9be d270 a0bd 0c58 cdbb 1638 693e
00000150: 5e9d b3be 6d19 833d a467 86be dbb3 e1bc
00000160: 12e5 03be f3cf 11be d515 61be c581 11be
00000170: 157e 10bb a95a 833e c41f 47bd a876 12be
00000180: 0f3f 9cbe 2017 b23e 7dd1 7fbd 85ee 5d3d
00000190: b60e 863e b9ba 2bbd 204d 7bbd 47ad 993d
000001a0: 0769 a9bc 114b e2be d20e 82be c304 1cbd
000001b0: 2e44 65bd c741 e4bd e28d 3bbe 19a1 42be
000001c0: be9c 903d 0aa2 c5bd 9e18 afbe 0a9f a63e
000001d0: bc1b 83bd cda0 c23e e843 afbd dd1d d33d
000001e0: cd9b 7a3e edba 70bd b6a5 8fbe 78ae f6bc
000001f0: 736e 543d edfc fabd c7f7 f3bd 59ce a7bd
-0.11678338 0.10074465 -0.2265082 -0.09325433 -0.09053384 0.040822603 -0.20489354 -0.107188925
-0.060934126 -0.066356525 -0.10942709 -0.24306406 0.2057438 -0.040043928 -0.11822922 -0.055030603
0.044923097 -0.30308914 -0.41798437 0.00075695495 -0.037092205 -0.14753827 0.1034102 -0.0046438267
-0.038184706 -0.001850429 -0.12054149 -0.003747097 -0.099602535 -0.08799573 0.44832358 0.15490903
-0.13100833 -0.10111379 -0.018888498 0.37395045 0.46831536 0.049322538 -0.08798108 0.75354123
-0.08310364 -0.0712391 -0.029388461 -0.123164766 -0.027741361 0.8572293 -0.014714866 -0.05797046
0.46392715 -0.16384593 -0.032296486 -0.1973144 -0.10017219 0.09806437 0.17881663 -0.038969446
-0.024543826 0.15967157 -0.40296364 -0.099397786 -0.107925504 -0.048846405 -0.036559433 -0.20666201
-0.23248947 -0.043259073 -0.06600857 -0.041330364 -0.08665474 0.32595378 -0.104560055 -0.05816425
-0.060192104 -0.025449855 -0.022433031 -0.11439659 -0.23930864 0.72675866 -0.11718687 -0.23604436
-0.42504483 -0.07834019 -0.0062665995 0.22775301 -0.35081 0.06401334 -0.26250947 -0.027551582
-0.12880352 -0.14239483 -0.21980985 -0.1420966 -0.0022047807 0.25655106 -0.04861428 -0.14303076
-0.3051686 0.34783268 -0.062455643 0.054182548 0.261831 -0.04192612 -0.06135285 0.07503753
-0.020679964 -0.44197896 -0.25401932 -0.03809048 -0.055973224 -0.111453585 -0.18315843 -0.19006766
0.07061146 -0.09650047 -0.3419847 0.32543212 -0.06401774 0.38013306 -0.08557874 0.1030843
0.24473496 -0.058772016 -0.28056115 -0.03011249 0.051863145 -0.12255273 -0.11912494 -0.081936546

fc3.weight f4 [51, 128]
00000000: 4f0b 0bbe 1234 e3bd e78f 15be 2def 2abd
00000010: a7dd a9bc d988 12bf 4682 00be 6aa2 e2bc
00000020: a320 1f3d c845 aabe c9a3 18bd 4ecc b3bd
00000030: 30ab a93d a0f7 07bd c495 abbd 7b99 eebd
00000040: 5324 94bc 0613 563e b1d8 793c 5614 8bbd
00000050: 264b b1bd 95c2 b9bd b558 debc 40ee bb3c
00000060: 2c6c 923c ad80 15bb 3be9 a33d 8167 1dbd
00000070: 6a34 ecbc b09c dd3c b63a 9abe 268a 28bf
00000080: 2492 d7bc fa44 d5bd 098a 003e 2654 b9bf
00000090: 0165 9b3e 07e4 ccbe 284e 29bf 64ed 8cbf
000000a0: 8b1c c1bd 1e24 08be 80ca acbd ecfc b33d
000000b0: f246 c7bc 4a22 f8be 585e c53c ed49 e53d
000000c0: 19c6 5abf dedf ecbd 640a da3e 6a94 dfbd
000000d0: ace0 6ebe 537f 70bf 1f25 39bf faa1 edbf
000000e0: be60 52bc 6e3f e0bd df33 63be 7227 29be
000000f0: 0a24 a93d 9c87 92bc e315 cf3c c330 8abc
00000100: bab1 69bc 7072 81be 60d5 fb39 aaeb 6fbd
00000110: c7ff debb ebd3 99bc d27a 00bc e72c 39bd
00000120: a841 efbd c8b2 83bc b9b7 ae3c 494f 993b
00000130: 4ff0 e0bc de7c f9bd a6d8 c3bc 7720 17bf
00000140: 6fd7 f6be 5814 a4be c215 9c3d 9244 79bf
00000150: d993 54be 15a9 05bf da78 69bd f1a8 37bd
00000160: 0cff 9abd d6e9 a7bd 4855 233e 2012 85be
00000170: 101d c8bd f547 43bf 64f2 0bbe 5d8d 67be
00000180: ccff d7bc 2cac 0fbf 4062 8dbd 3ba2 39bf
00000190: 6253 9c3e 6079 b9bd e9da 7dbd cc09 8dbd
000001a0: 4d18 b3bd 4104 b5be ebdc 9dbd 3006 00be
000001b0: dd2c 1cbe 595a c5bd 52e4 3ebd 7611 4cba
000001c0: ce92 99be f5c5 073c 26e2 9b3d db6c 1a3d
000001d0: d42c 55bf 6cb4 703e 356d 2c3d fabd 5c3d
000001e0: 1ee1 10be 5592 60bb eae7 5cbd d615 b9bd
000001f0: 90b8 a03e bf23 b03b 769e 88bd 91ca 94bd
00000200: ce99 15be 06c2 57bf 8286 a7be 73be d4bd
00000210: 0c6f ffbd e870 6dbe 0f46 41be 1d88 b23c
00000220: 5531 57bd 670f 6fbe 8833 adbd a04a 713d
00000230: f207 e5be 3996 99bc 4f22 c2bc dd48 7fbd
00000240: fa17 303e 63ef e4be 91fc 4cbf df58 e03c
00000250: 0748 27bd 20fc b63c 82bc 113d d65b 90bd
00000260: 6f96 b2bb 6e85 bdbd 9d45 99bf 4d22 f6bd
00000270: 9ff7 65bd f4be 3c3c 65d9 6fbe 4aca dabe
00000280: 9ac3 d73c c276 e5bc 021d f2bd 54e5 35be
00000290: 8b0d 61be ec01 acbd bd70 d8bf 9692 9e3e
000002a0: e5a2 adbe 5029 20be c9af 033d 6d79 63bc
000002b0: 4f89 0b3c 9721 163f 52c7 9ebd 96ff 08be
000002c0: 42fc ebbb e259 63be f47d 8abf a9db 05be
000002d0: 41ec 98bf 2fd8 46bf cf88 e7be 002f 673e
000002e0: 8c6f 1fbe 9643 28bf 4b8d 16be bf4f 2fbe
000002f0: 0bce 783d 7422 d43c 2b9c 8dbc e56d 2d3c
00000300: 0718 97be 02a4 e9bd 6bf3 90bd 9f91 4ebd
00000310: 522b 98bd 370d 89bf bab8 13bd 080f b63a
00000320: a4dc b0be f0c6 9cbd 33b3 e4bc 11b9 b4bd
00000330: b051 41be 6e1e 3f3e ecab f3bd ecff d5bd
00000340: 9d12 d3be e9c2 82be 9fc4 da3b fc7c 7cbe
00000350: 6b36 05bf 0c66 04bf 58e0 64bd 97bb 9bbd
00000360: aa36 c2bd 0b12 33bc 4524 5abe e7f9 b7be
00000370: 7b57 a23d 673e 6a3e 5c75 48bd 3a56 9bbf
00000380: 6274 d2ba ed6c 183e 8fb7 6b3a d795 b8be
00000390: 6821 2a3e 9e35 06be 399b 41bd 75eb 6abf
000003a0: 9f75 633c 1a00 9b3d eb59 e4be 4a05 a3bc
000003b0: 938a 24bd f2dc 00bc c645 9fbe 5c1f 98bb
000003c0: 44d3 14bf 87f8 09bc 06d7 10bf 2e69 453e
000003d0: 58f3 e2be 5393 933c 6619 aebd 9185 6dbf
000003e0: 5af1 abbd ed7b e7bd 397d e03d cd1f 97bd
000003f0: 23ae 1fc0 0317 34bd 4073 26bd 2e78 72bc
-0.13578533 -0.11093916 -0.14605676 -0.041732002 -0.020735575 -0.5724006 -0.12549695 -0.027665336
0.038849484 -0.33256364 -0.037265573 -0.087792024 0.082846045 -0.033195138 -0.08378175 -0.11650368
-0.018083727 0.20905694 0.015249417 -0.06790988 -0.086569116 -0.09070317 -0.027141908 0.022940755
0.017873846 -0.0022812292 0.080034696 -0.038428787 -0.028833587 0.027052253 -0.30122918 -0.658358
-0.026314802 -0.10413547 0.12552656 -1.4478805 0.30350497 -0.4001772 -0.6613488 -1.1009946
-0.09429272 -0.13295028 -0.08437061 0.087884754 -0.024325822 -0.4846366 0.024092838 0.11195741
-0.85458523 -0.11566137 0.42586052 -0.109169796 -0.23327893 -0.9394428 -0.7232227 -1.8565056
-0.012840448 -0.10949598 -0.22187756 -0.16518953 0.08258827 -0.01788693 0.025278991 -0.016868955
-0.014263565 -0.2528262 0.00048033427 -0.058574356 -0.0068053934 -0.018777808 -0.007841783 -0.045208838
-0.11682445 -0.01607646 0.02132784 0.004678641 -0.027458338 -0.1218202 -0.023907017 -0.5903391
-0.48211238 -0.3204677 0.076213375 -0.97370255 -0.20759524 -0.52211124 -0.05700002 -0.04483885
-0.075681776 -0.081988975 0.15950501 -0.2599039 -0.09771168 -0.7628167 -0.13666683 -0.2261252
-0.02636709 -0.5612209 -0.06903505 -0.7251317 0.30532366 -0.090563536 -0.061976347 -0.06886634
-0.087448694 -0.35354808 -0.077081524 -0.1250236 -0.15251489 -0.09636373 -0.046604462 -0.00077845843
-0.29994816 0.008286943 0.07611494 0.03770147 -0.8327153 0.23506325 0.042096335 0.053892113
-0.14148375 -0.0034266908 -0.053932108 -0.09037368 0.3139081 0.005375355 -0.06670849 -0.07265199
-0.14609453 -0.8428043 -0.3271981 -0.10387888 -0.124723524 -0.23187602 -0.18874381 0.02179342
-0.05253728 -0.2334572 -0.084570944 0.05890906 -0.44732624 -0.01874839 -0.023698 -0.062325347
0.17196646 -0.44713888 -0.80072886 0.027386127 -0.040840175 0.02233702 0.035580166 -0.07048766
-0.005450062 -0.09253965 -1.1974369 -0.12018261 -0.056144353 0.011520136 -0.23422773 -0.4273246
0.026338387 -0.02801073 -0.11821939 -0.17763263 -0.21977822 -0.08398804 -1.6909405 0.3097121
-0.3391334 -0.1564076 0.032150064 -0.013883931 0.008516624 0.58645004 -0.07752861 -0.13378748
-0.0072017023 -0.22202256 -1.0819688 -0.13072075 -1.1947099 -0.7767362 -0.45221564 0.22576523
-0.15569896 -0.6572813 -0.14702336 -0.17120264 0.060743373 0.025895335 -0.01728638 0.010585283
-0.2951052 -0.11408235 -0.07077678 -0.050431844 -0.07430138 -1.0707158 -0.03606484 0.0013889978
-0.34543335 -0.07655132 -0.02791748 -0.08824361 -0.18878818 0.18663952 -0.11898026 -0.10449204
-0.41225138 -0.2553933 0.006676271 -0.24657053 -0.5203616 -0.5171821 -0.055878013 -0.07604139
-0.094830826 -0.010929595 -0.21302898 -0.35932848 0.07926842 0.22875367 -0.048940048 -1.2135689
-0.0016056413 0.14885302 0.0008991891 -0.3605182 0.16614306 -0.13106391 -0.047267172 -0.9176553
0.0138830235 0.07568379 -0.44599852 -0.019899983 -0.040171217 -0.0078651775 -0.3110792 -0.00464241
-0.58134866 -0.00842107 -0.565781 0.19278404 -0.44326282 0.018014586 -0.08500938 -0.9278193
-0.083956435 -0.11302934 0.10961384 -0.073791124 -2.4950035 -0.04396726 -0.040637255 -0.014799161

fc3.bias f4 [51]
00000000: 0adf 6bbe 7e9c 933e f136 c13e a4ec 073e
00000010: 0ac7 07bf c96d e0be 543d a0bd cf3a 303e
00000020: d6a8 a83e 9651 71bd 3781 2abc 23f2 9d3d
00000030: 11ca 3b3e 41c9 aebc 7ea6 6abf 1c71 893e
00000040: becb a13e a9fa 993e 7203 92be 0f29 ae3e
00000050: 072b dbbe 3a5a 01bf 0d95 7f3d 0ef0 b9be
00000060: 6dc1 d9be 4256 0fbf e8fc 3d3e ec08 373f
00000070: 878b 2dbe 622c 9abe 267c 953e 431a 0cbf
00000080: 21c6 b2be d235 b73e 0d72 3f3f 5154 3b3d
00000090: 1569 a9bd 9099 acbd ef06 1abc 0cb6 14be
000000a0: 85a2 e0be 4b82 a43c 39e1 463e d856 8bbd
000000b0: 4a23 983d 00e1 3bbe 8d6b 2bbf 6a5f e23c
000000c0: cd64 48bc b00b 253f f7ce 023f
-0.23034301 0.28830332 0.3773723 0.13273865 -0.53038085 -0.4383376 -0.078241974 0.17209934
0.32941312 -0.058915697 -0.010406784 0.077121995 0.18338801 -0.0213362 -0.91660297 0.26844108
0.31600755 0.3007405 -0.28518254 0.340157 -0.42806265 -0.505283 0.062398005 -0.3631596
-0.42530385 -0.55990994 0.18553507 0.7149799 -0.16947757 -0.30111986 0.2919628 -0.5472757
-0.34916785 0.3578325 0.747834 0.045734707 -0.08271996 -0.08427727 -0.009401067 -0.1452257
-0.43873993 0.02008166 0.19421853 -0.068036735 0.07428606 -0.1834755 -0.66960984 0.027633388
-0.012231064 0.6447096 0.51097053
